swin_classification_pytorch_model_weights.pth (torch, 482108 bytes, 31 tensors)

patch_embedding.pos_embed f4 [1, 256, 64]
000000 42 fe 08 ba 0f d8 88 3a dd 82 e6 ba 88 27 ab b9
       -0.00052258756 0.0010440367 -0.0017586608 -0.00032645115
000010 1f 99 14 3b c5 fd d5 b8 23 7d 03 ba 8b 48 30 b6
       0.0022674275 -0.000102039 -0.00050159 -2.626827e-06
000020 54 3d 25 3b 4b d3 59 b7 1f c2 bb b9 a0 31 8c 3a
       0.0025213556 -1.2983403e-05 -0.0003581205 0.0010695942
000030 71 f1 05 bb 1a 61 f1 39 0a e3 f9 37 0b 30 0a bb
       -0.00204381 0.00046039448 2.9788836e-05 -0.0021085765
000040 8d cd 0c ba 13 55 4f 3a e7 5c 5c bb ca 95 09 b9
       -0.00053712056 0.00079091004 -0.003362471 -0.00013121139
000050 d8 db 06 bb 54 fe c4 3a 5e 2d 9b b9 39 9e 98 ba
       -0.0020577814 0.0015029409 -0.00029597705 -0.0011643834
000060 be c3 88 3a 5e 7d 56 3a 1f 86 53 3b 3f 2a bf ba
       0.0010434312 0.00081821333 0.0032275987 -0.0014584734
000070 32 e7 e5 ba 65 ab ea 37 dd cd 35 3a 56 a5 f3 39
       -0.0017540215 2.7974786e-05 0.0006935278 0.00046471757
000080 1f 3d 46 3b ff 40 31 3a 40 fa 05 ba 9d 7c be b9
       0.0030248833 0.00067616993 -0.00051108375 -0.00036332468
000090 8b 3b 94 ba d1 d1 0d 3b 33 8f b0 b9 7c 53 3b ba
       -0.0011309249 0.0021639953 -0.00033676028 -0.0007145924
0000a0 96 77 8f 38 0c 7d 2f ba ec e6 ac 38 6d c7 e7 3a
       6.841046e-05 -0.00066943537 8.244612e-05 0.0017683335
0000b0 48 0d 17 3b c9 e1 10 b9 11 58 2f ba ae d9 0b 3a
       0.0023048688 -0.00013817022 -0.0006688843 0.0005334866
0000c0 bc 57 2c b9 75 17 ee 38 2c 43 e1 ba 81 27 fe b9
       -0.00016435882 0.000113530936 -0.0017186156 -0.00048476088
0000d0 c0 ff 59 bb a2 6e 07 3a 79 f3 d8 ba c7 a8 29 b9
       -0.003326401 0.0005166327 -0.0016552053 -0.0001617997
0000e0 e7 6a 17 3a d8 53 00 b8 9e a0 d8 3a 81 61 74 3a
       0.00057761226 -3.0595664e-05 0.001652736 0.00093223905
0000f0 59 51 71 3a 38 4d a9 3a 48 c3 8a ba 13 d8 15 b9
       0.0009205542 0.001291669 -0.0010586763 -0.00014290241
000100 4f 73 b4 b7 c4 42 dc 39 98 28 9a ba db c6 26 ba
       -2.1511367e-05 0.00042011414 -0.0011761365 -0.0006362029
000110 01 a9 b0 3a 71 9a fe b9 26 d2 1f 3a 0c cb a9 b9
       0.0013478101 -0.00048561723 0.0006096683 -0.00032385474
000120 4e e7 8d 3a d1 f5 08 3a a5 3a 97 b9 ea 29 40 3a
       0.001082638 0.0005224618 -0.00028844658 0.00073304644
000130 b0 04 9c ba 5c a5 fd 38 03 50 6f b8 b7 a4 d0 ba
       -0.0011903252 0.00012094781 -5.7056557e-05 -0.001591823
000140 4b 56 58 ba c5 b2 17 b7 88 dd e6 ba 7c 19 64 3a
       -0.0008252605 -9.041924e-06 -0.0017613629 0.0008701307
000150 06 82 5d ba f6 ae 35 3a aa 6f cb 39 4f 3d 64 ba
       -0.0008449856 0.0006930673 0.00038802373 -0.00087066455
000160 f6 4d 95 3a 54 eb 3b 3a 27 86 d3 3a 22 02 8b ba
       0.0011391032 0.00071685505 0.0016138003 -0.0010605494
000170 d9 23 af ba b8 e6 10 ba 9c e8 b0 39 0f 78 79 39
       -0.0013362124 -0.0005527544 0.00033742643 0.00023791216
000180 af 3d a6 3a c9 ae 41 39 2c ec 28 b9 e0 54 56 38
       0.0012683178 0.00018471027 -0.0001610971 5.1100622e-05
000190 1e 9f bf b8 3a d2 b6 3a 0a 9a 45 ba da 23 76 ba
       -9.1372276e-05 0.001394815 -0.0007537907 -0.00093894976
0001a0 95 f7 55 b9 70 5c 2e ba 95 7a 34 b9 59 55 65 3a
       -0.00020405494 -0.00066513475 -0.00017211803 0.00087483745
0001b0 d0 f1 d9 3a 16 b1 c9 b9 d5 88 9c b9 6d c3 56 3a
       0.0016627852 -0.00038469647 -0.00029856586 0.0008192573
0001c0 f1 49 b4 b9 49 9a 82 b9 11 04 92 ba 7d 09 d1 b9
       -0.00034387366 -0.00024910484 -0.0011140128 -0.00039870656
0001d0 dd e4 f5 ba 9b 9e 99 39 30 81 50 ba 83 da ee b7
       -0.0018760223 0.00029300604 -0.0007953821 -2.8473563e-05
0001e0 62 2e 60 3a ca 5c b3 39 d7 d8 ba 3a 58 50 1a 3a
       0.00085518335 0.00034210674 0.0014255297 0.0005886606
0001f0 aa cc 07 3a 78 28 b5 3a 25 47 92 ba e9 e7 ac 39
       0.00051803386 0.0013821265 -0.0011160119 0.00032979183
000200 10 26 63 b9 cb 9b 41 39 33 34 44 ba 19 57 7a ba
       -0.00021662586 0.00018463952 -0.0007484585 -0.0009549722
000210 72 1d f5 39 d9 a2 4d ba dd fc bd 3a df b9 05 ba
       0.0004675198 -0.00078443956 0.0014494915 -0.00051012443
000220 1d 45 f2 38 2e 8c cc 3a 19 23 64 ba 40 1a a9 39
       0.000115523326 0.0015605742 -0.000870274 0.0003225375
000230 50 f0 4c ba f3 f8 d3 38 a8 38 a3 39 3a 93 e2 ba
       -0.0007817792 0.000101076344 0.00031131995 -0.0017286309
000240 be 63 cc ba 1e 35 8f ba 6d 43 2a ba ee 83 a2 3a
       -0.001559369 -0.0010925864 -0.00064950326 0.0012398937
000250 59 f3 b4 b8 87 ab 24 b8 9e 44 df 3a ee da 78 ba
       -8.628396e-05 -3.9260394e-05 0.0017033999 -0.0009493072
000260 a1 8c 90 3a e9 17 92 3a 72 d5 17 3a c9 30 1c ba
       0.0011028239 0.0011146042 0.00057919987 -0.0005958197
000270 d4 51 b2 b9 6a ec 9c ba 64 58 a1 39 86 11 21 ba
       -0.00034011772 -0.0011972312 0.0003077417 -0.0006144274
000280 15 18 0a 3a 73 50 ed ba 83 01 cf b9 d0 56 b7 3a
       0.0005267871 -0.0018105641 -0.00039483243 0.0013987664
000290 6b 3d e3 3a d0 39 69 b9 a5 87 ff ba 34 41 b7 ba
       0.001733703 -0.00022242148 -0.0019495381 -0.0013981224
0002a0 e8 6b 3f ba 51 ed 85 ba bb ad aa 39 3e b2 4d 3a
       -0.0007302151 -0.001021782 0.00032554366 0.00078466896
0002b0 8d 99 87 3a 47 85 40 ba 4e 2e 71 b9 04 02 a4 3a
       0.0010345444 -0.00073440786 -0.00023000801 0.0012512808
0002c0 f5 21 66 ba bb 37 a1 ba 5a 23 93 b9 06 ce 0c ba
       -0.00087788637 -0.0012299934 -0.00028064364 -0.0005371276
0002d0 00 69 3b ba 27 b7 c3 3a f3 1e 84 38 41 50 0a ba
       -0.000714913 0.0014931903 6.300015e-05 -0.0005276241
0002e0 6a 57 f6 3a 35 a4 5b 3a 9a e1 73 3a 21 8b b7 38
       0.0018794362 0.0008378656 0.00093033316 8.752035e-05
0002f0 d4 6b 6e 3a fc db b8 3a 33 96 b5 b9 24 d5 e1 3a
       0.0009095047 0.0014103646 -0.00034634917 0.0017229659
000300 fd bb d2 38 cb df 49 ba 29 71 14 3a 15 0f 5e b9
       0.00010048596 -0.0007700889 0.0005662614 -0.00021177188
000310 f0 24 bf ba 1d 03 09 ba aa d2 ec 3a 8f a7 3f ba
       -0.0014583152 -0.0005226599 0.0018068154 -0.000731104
000320 d1 f2 28 bb 40 cd c6 3a ff b0 d3 b9 af 88 3a ba
       -0.0025779495 0.001516737 -0.00040376929 -0.00071157044
000330 7a f1 b4 39 31 7b 04 b9 7c 99 c0 39 69 85 c9 39
       0.0003451219 -0.00012634393 0.00036735449 0.00038437106
000340 7f 55 c3 ba 07 c9 a5 ba db 51 03 3b ab 2e b7 3a
       -0.0014902799 -0.0012648412 0.0020037803 0.00139757
000350 cc be e6 3a 79 5e 03 bb 82 30 1f 3b ba 48 13 39
       0.0017604469 -0.0020045324 0.0024290388 0.00014046105
000360 1c 07 32 3a c6 a7 13 3a a6 21 ed ba b4 e7 ec 39
       0.00067912205 0.0005632605 -0.0018091693 0.0004518606
000370 3b 1a 5b 3a 7c 2b 92 ba 1a a7 e7 37 5e dc be b9
       0.00083580957 -0.0011151875 2.7615159e-05 -0.0003640381
000380 ab a2 fb ba f2 ae e3 ba af 99 c8 38 b8 31 21 3b
       -0.0019198259 -0.0017370863 9.565369e-05 0.0024596285
000390 ce 79 2d 3b b4 6c ea ba 27 13 07 bb 60 7b 9e ba
       0.0026470306 -0.0017885179 -0.002061078 -0.0012091212
0003a0 5e 62 4a ba 3b 28 8c ba bb a2 dc b9 55 7e 1f ba
       -0.00077203463 -0.0010693142 -0.00042082914 -0.00060841936
0003b0 65 1b 09 ba d8 d9 48 ba dc d0 45 b8 56 6a 10 3b
       -0.00052302174 -0.0007661856 -4.7162976e-05 0.0022036037
0003c0 9a 9b ad ba 2f b8 94 ba 95 6a 85 3a 63 a4 ba b9
       -0.0013245225 -0.0011346395 0.0010178859 -0.00035599162
0003d0 8b cc f9 3a bf 90 0e 3a 3d a5 8b 3a 17 b1 12 ba
       0.0019058151 0.0005438439 0.0010654103 -0.00055958465
0003e0 f1 7a 0e 3b cd c2 5e 3a ac 5b d6 b9 d5 a1 d7 b9
       0.002174076 0.00084976555 -0.00040885562 -0.0004112857
0003f0 be b6 be 39 43 67 0f 3a e1 4c f7 b8 d4 2c d8 3a
       0.00036375778 0.0005470404 -0.000117921976 0.0016492852

patch_embedding.proj.bias f4 [64]
000000 ae 30 da 3d bb a7 76 be f0 08 95 3e 6e 38 db 3e
       0.10653816 -0.24087422 0.2910838 0.4281649
000010 d7 53 5b be 47 55 86 be b6 b9 b0 3d 49 cf a8 3e
       -0.21418701 -0.26236936 0.086291716 0.32970646
000020 68 cf 01 be fc f3 04 be 4d a5 9b 3e b3 ea 3e 3e
       -0.12676775 -0.12983698 0.30399552 0.18644218
000030 f4 56 bf 3e 60 b7 89 3d 39 03 c7 3d 69 63 c8 3e
       0.37371027 0.06724429 0.097174115 0.39138344
000040 2b c1 cf 3e a0 0a 37 be 4a 1d ff 3e f5 dc 86 3e
       0.40577063 -0.17875147 0.49827033 0.26340452
000050 99 f2 b5 3b d3 f8 89 bc 1b 98 d5 be ab 3e e6 3e
       0.0055526015 -0.016842281 -0.4171761 0.44969687
000060 f0 9a 94 be 21 e3 f2 3d 6e 5e bc be b6 5e 51 3e
       -0.29024458 0.11859728 -0.36790794 0.20446286
000070 02 4c dd 3e 39 52 17 3e 05 43 f5 be 4f 69 85 bd
       0.43222052 0.14777459 -0.47902694 -0.06514227
000080 cd b0 c1 be 04 69 41 3d 89 fd 03 3d 57 23 2f be
       -0.378302 0.04721929 0.03222421 -0.17103325
000090 2c 05 3e 3e e4 90 a3 be 65 28 b7 3e e0 81 b3 3e
       0.1855666 -0.3194648 0.35773006 0.35060024
0000a0 82 42 8c 3e 5a c3 a8 3e c6 3b 12 bd a5 a2 37 be
       0.2739449 0.3296154 -0.035701536 -0.17933138
0000b0 d7 9e d4 be f2 4c 9c 3e 8a f9 ab 3e 0b f6 bd be
       -0.41527435 0.30527455 0.3358882 -0.37101778
0000c0 58 4a e6 3e 98 d5 83 3e f2 d7 ac 3e eb 84 e4 3d
       0.44978595 0.25748897 0.33758503 0.111581646
0000d0 76 23 eb 3e c9 66 98 3c 3c b5 39 3e a5 d0 42 bc
       0.45925492 0.0186037 0.18135542 -0.011890565
0000e0 82 43 a6 be 9f c3 3e bc f5 2f e8 be ce a0 37 3d
       -0.3247338 -0.011643319 -0.45349088 0.04483109
0000f0 67 17 8d be b3 e5 de be ca b0 41 3e 92 1b 27 be
       -0.27556917 -0.43534622 0.18915096 -0.16319111

swin_transformer1.norm1.weight f4 [64]
000000 20 d2 7f 3f 08 9e 7f 3f 37 02 80 3f 0c a5 80 3f
       0.9993 0.9985051 1.0000676 1.0050368
000010 23 10 81 3f 43 ce 7f 3f 93 86 7f 3f e2 7b 7e 3f
       1.008305 0.99924105 0.9981472 0.9940778
000020 51 28 81 3f 1d c7 7e 3f 75 33 80 3f c1 4b 7f 3f
       1.0090429 0.9952257 1.0015703 0.99724966
000030 be e5 7f 3f 4f 80 7f 3f 1b 2b 7f 3f 18 2b 81 3f
       0.99959934 0.9980516 0.9967515 1.0091276
000040 4a 1e 7f 3f 65 99 7f 3f 72 3c 82 3f 78 f5 7f 3f
       0.9965559 0.99843436 1.0174696 0.9998393
000050 ec f9 7f 3f 78 d1 80 3f c1 62 7f 3f 2c d6 7f 3f
       0.99990726 1.0063925 0.9976006 0.99936175
000060 42 12 80 3f 43 b1 7d 3f 0e 7b 81 3f d1 29 80 3f
       1.0005572 0.99098605 1.0115678 1.0012761
000070 c4 2f 7f 3f e5 65 7f 3f 58 60 7f 3f fd 5a 7f 3f
       0.9968226 0.99764854 0.99756384 0.9974821
000080 ab 8c 81 3f 15 6d 7f 3f af 6c 7f 3f b1 84 7f 3f
       1.0121053 0.9977582 0.99775213 0.99811846
000090 ab 07 80 3f a1 ef 7f 3f f0 54 7d 3f d5 28 7f 3f
       1.000234 0.9997502 0.9895773 0.9967168
0000a0 82 fb 7f 3f ee 14 7f 3f 23 92 7f 3f 6f 24 80 3f
       0.99993145 0.9964131 0.9983236 1.0011119
0000b0 49 cb 80 3f 02 12 7f 3f 68 00 80 3f c3 cb 7e 3f
       1.0062038 0.9963685 1.0000124 0.99529666
0000c0 87 9b 7e 3f 5f 71 7f 3f 1c 1e 80 3f ff 83 7f 3f
       0.99456066 0.99782366 1.0009189 0.99810785
0000d0 99 e4 81 3f d4 0a 80 3f 6b 8a 7f 3f 68 5b 7f 3f
       1.0147887 1.0003304 0.99820584 0.9974885
0000e0 13 3c 7d 3f d3 7e 7f 3f a6 2f 80 3f c3 84 7f 3f
       0.9891979 0.99802893 1.0014541 0.99811953
0000f0 10 eb 7e 3f ec d1 7f 3f 84 39 7f 3f 71 4c 7f 3f
       0.99577427 0.9992969 0.99697137 0.99726015

swin_transformer1.norm1.bias f4 [64]
000000 03 0b 0e b9 a5 b5 9f 3a b7 74 21 3b e5 82 46 3b
       -0.00013546277 0.0012184872 0.0024636218 0.0030290422
000010 fc b5 a7 b8 6a 54 16 ba 77 5a 16 3a cd 4c 47 bb
       -7.997078e-05 -0.00057346246 0.0005735526 -0.0030410767
000020 eb 5a ae bb 9b 57 e0 3a df 27 60 3b cb 58 9f ba
       -0.005320897 0.0017115952 0.0034203453 -0.00121572
000030 fa e3 0d bb 56 81 0a bb 62 37 2e 3b 21 d4 08 3b
       -0.0021650777 -0.002113422 0.0026583304 0.0020878392
000040 de 81 40 ba f5 b3 b7 ba 38 32 db 3a ee 23 03 3a
       -0.00073435705 -0.0014015423 0.001672334 0.00050026074
000050 1a d5 a1 39 cc 33 80 39 d0 b0 0d b7 26 3f e8 39
       0.00030867086 0.00024452654 -8.445422e-06 0.00044297538
000060 3d f2 de ba 50 3b 83 39 a2 ec 89 bb ca c0 85 3b
       -0.0017009448 0.00025030458 -0.004209117 0.00408182
000070 1f 8c 56 bb ad f5 3b bb 82 15 28 b9 9c 7a a6 38
       -0.0032737327 -0.002868037 -0.00016029741 7.9383346e-05
000080 1a 9a 7a ba 6b ef 78 b9 08 cf c6 39 f7 4b 96 ba
       -0.0009559706 -0.00023740313 0.00037919753 -0.0011466731
000090 b2 73 7f 3b a1 b9 2e bb 3a f4 85 bb 78 41 aa ba
       0.0038978872 -0.0026660936 -0.004087952 -0.0012989482
0000a0 70 38 07 3b 2a 4a ae ba b9 52 af ba 8d 38 05 bb
       0.0020633005 -0.0013297249 -0.0013376094 -0.0020327896
0000b0 9f b6 de 39 07 d2 e7 ba 50 e7 29 3b 8b d5 f4 3a
       0.00042479203 -0.0017686494 0.0025925227 0.0018679363
0000c0 ff e3 8a ba 22 54 5c 3a 94 27 f0 3a 14 80 ba 3a
       -0.0010596513 0.0008404871 0.0018322342 0.0014228844
0000d0 28 de fe ba 0f 2d 59 ba e1 af 80 bb 1a 0e 8d 3a
       -0.001944487 -0.00082846073 -0.0039272164 0.0010761649
0000e0 14 9c 91 3b 72 58 11 3b d1 00 bf 3a c4 f3 c7 ba
       0.004443655 0.0022177962 0.0014572387 -0.0015255143
0000f0 84 cf c4 3a 5b 73 62 ba f9 eb c0 ba 3d 50 73 3a
       0.0015015458 -0.0008638405 -0.0014718763 0.0009281671

swin_transformer1.attn.relative_position_bias_table f4 [9, 8]
000000 28 36 32 ba aa d1 ac b9 16 fc c3 ba 99 77 c6 b9
       -0.0006798231 -0.00032962608 -0.0014952447 -0.0003785461
000010 89 97 d4 b9 2b b1 45 b9 8c df 89 b9 04 3b 33 ba
       -0.00040548694 -0.00018853384 -0.00026297232 -0.0006837102
000020 6f 26 97 39 96 3d 1f 39 b9 8b db 38 b4 cb 71 36
       0.000288296 0.00015186364 0.00010468759 3.603037e-06
000030 fb 07 fb b8 bb c7 98 b8 14 f3 fd b8 4f dc 90 39
       -0.00011970099 -7.2851275e-05 -0.00012109257 0.00027629963
000040 26 c1 47 ba 09 2d e2 b9 ab 9d 2a ba 29 23 e6 b9
       -0.0007620029 -0.00043139633 -0.000650848 -0.00043895215
000050 ee 53 1d ba ec 7c f8 b9 bb c2 8d b9 96 6f 92 ba
       -0.0006001581 -0.0004739532 -0.000270387 -0.0011172171
000060 30 c3 84 ba 35 f6 55 ba 71 36 f7 ba 8f d6 12 ba
       -0.0010128971 -0.0008161993 -0.0018860829 -0.000560143
000070 c8 60 29 ba 0f b3 82 b9 bf fb a9 b9 7d 89 aa ba
       -0.000646126 -0.0002492894 -0.00032421757 -0.0013010945
000080 ec 08 87 3b 2e cd e3 3a d9 f8 ae 3b 51 23 14 3b
       0.0041209366 0.0017379874 0.0053397235 0.0022604058
000090 57 7d 1d 3b 80 ec c5 3a a7 dc b9 3a a4 c2 8e 3b
       0.0024031007 0.001510039 0.0014180139 0.004356699
0000a0 27 2f 99 38 85 47 38 b9 f6 b6 53 39 f8 1f 0d b8
       7.304391e-05 -0.0001757425 0.00020190686 -3.3646793e-05
0000b0 b0 ab 42 39 34 51 73 b8 0f 57 bf 38 75 1e 84 b8
       0.0001856524 -5.801134e-05 9.123806e-05 -6.2999236e-05
0000c0 be 7b 42 ba ae 44 93 b9 b9 d6 6e ba 9c 0d e9 b9
       -0.0007418952 -0.00028089195 -0.00091109757 -0.00044451363
0000d0 c1 16 ff b9 a8 e0 89 b9 cd 55 7b b9 b8 cd 4d ba
       -0.00048654343 -0.00026298058 -0.00023969189 -0.0007850784
0000e0 3d 88 51 39 35 d0 41 3a d2 75 54 3a 0b f4 b2 39
       0.00019982546 0.0007393391 0.0008104715 0.00034132632
0000f0 8f bd cf 39 59 0a ad 39 70 4b ea 38 bf 61 39 3a
       0.0003962335 0.0003300484 0.00011172041 0.0007071755
000100 98 b4 c2 ba 3b 10 1c ba 2f 61 c6 ba 33 7c 44 ba
       -0.0014854847 -0.0005953346 -0.0015135164 -0.0007495314
000110 3c 92 3e ba 84 1b 0c ba b1 15 d3 b9 27 33 b6 ba
       -0.00072697154 -0.00053446763 -0.00040261218 -0.0013900743

swin_transformer1.attn.qkv.weight f4 [192, 64]
000000 16 b6 84 bd 59 7f 3b bc 9c 7f 78 bd e1 12 95 3d
       -0.06480043 -0.011443936 -0.060668573 0.072789915
000010 1d 14 b8 bd ed d9 c0 3d c2 f1 b5 bc 7e 9b ea 3d
       -0.08988211 0.09416566 -0.022210006 0.11455439
000020 de 5b b7 bc 09 db 41 3b aa 8b b1 3d eb 2f b8 3d
       -0.022382673 0.0029580018 0.08669217 0.089935146
000030 55 df fd 3d 18 87 85 bd 3a c9 06 bd ad 81 c8 bd
       0.12396113 -0.06519908 -0.03290675 -0.09790359
000040 52 aa 1c bd c4 d2 85 3c e0 84 5b bd 22 19 74 bc
       -0.038248368 0.016335852 -0.053593516 -0.01489857
000050 bb b2 ff b7 23 c4 53 bd 2f a3 cd 3b 16 cc 6d bd
       -3.0481597e-05 -0.051700722 0.0062755565 -0.05805596
000060 53 b7 e8 3d 96 8b d9 3d 1b 42 a0 bd c2 df 9b 3c
       0.11363091 0.10622327 -0.078251086 0.019027594
000070 2f 51 35 3d 2b b5 fb bd 08 69 e3 bd 53 f1 14 bd
       0.044266876 -0.122904144 -0.111040175 -0.036362957
000080 10 84 8f 3d 2e ab 84 bc 23 ec a8 3c 61 1c 9c bd
       0.07007611 -0.016194906 0.020620411 -0.076226
000090 6d 0c 98 3d f1 03 ad 3d b0 ec 62 bd 9c 60 64 bd
       0.07424245 0.084480174 -0.055401504 -0.055756196
0000a0 b0 b5 ef bc 14 3f 9c 3d 7f aa 4c bd a4 30 46 bd
       -0.02926144 0.07629219 -0.049967285 -0.04838623
0000b0 e4 63 ed bd 47 b9 fa 3d e0 9f 35 3d 68 3f 2c 3c
       -0.11591318 0.1224237 0.04434192 0.010513164
0000c0 45 78 b6 3d 34 38 84 3d 9b 43 6b bc 4d 83 0a 3c
       0.08909658 0.064560324 -0.01435938 0.008454156
0000d0 ee 30 04 bd 99 fb 07 bc 54 16 7d 3d 37 e1 74 3c
       -0.032273225 -0.008299732 0.061788872 0.0149462735
0000e0 47 0e e2 bd 55 2f 13 bd 75 30 e2 3d 9a a0 e0 3d
       -0.110378794 -0.03593381 0.11044399 0.10968132
0000f0 0b e6 ee 3d 26 fc 2f bd 3c 61 8f bd 12 0d 54 3d
       0.11664971 -0.042965077 -0.07000968 0.051770277
000100 03 f4 5f 3d 55 c7 04 3d 8e 25 b3 bc 90 f3 73 bd
       0.054676067 0.03241666 -0.021868493 -0.05955845
000110 26 41 bd bd f1 6d f6 3b 7e 8c a8 bc e3 5f dc bd
       -0.09240942 0.0075204303 -0.020574804 -0.107604764
000120 d3 a1 6f bd d4 96 b0 bc e7 d9 f5 3d 21 0f c7 3c
       -0.058503937 -0.021556295 0.12004452 0.024299206
000130 8f ed ac 3c ad 15 c3 bd 85 84 b5 3d 0a db df 3d
       0.02110937 -0.09525619 0.08863167 0.1093045
000140 78 34 80 bd 6a 3f d2 bc ab ad b2 bd 7e 1e ec 3d
       -0.062600076 -0.025665004 -0.08724531 0.115292534
000150 a0 32 2b bd ba d5 ba bd e0 a3 31 bc 60 df 24 3b
       -0.041796327 -0.09122796 -0.0108422935 0.0025157556
000160 52 eb a6 3d ff 14 f4 bc a8 37 e8 3c 9f 31 0e bd
       0.081503525 -0.029795168 0.028346851 -0.03471529
000170 fa 16 0a 3c ff c5 99 bd 45 d5 ad 3d 01 23 de bc
       0.00842833 -0.07508468 0.084879436 -0.0271163
000180 63 1d fe 3d 2a 66 dc 3d 19 51 91 bd 6f d1 4f 3c
       0.12407949 0.10761674 -0.07095546 0.01268421
000190 1b ce d3 3d 91 8e f8 bc 02 4a b6 3d fa e0 92 bd
       0.10342046 -0.030341418 0.089008346 -0.07171817
0001a0 b1 30 b9 3d c3 e1 4e bc 44 57 97 3d 41 4d b3 bd
       0.0904249 -0.012627068 0.073896915 -0.087549694
0001b0 3a bc c1 3c 62 09 f3 bd 37 29 28 bd 81 a4 7c bd
       0.023649324 -0.11867024 -0.04105493 -0.06168032
0001c0 91 0b ff 3d 15 0f 41 3d 99 67 f3 3c b7 ed b5 3d
       0.12453378 0.047133524 0.029712485 0.08883231
0001d0 54 e3 5f bd 67 85 b9 3d 55 35 8b bd fd 80 de 3d
       -0.054660156 0.090586476 -0.06797282 0.10864446
0001e0 9e 4b 34 3d 39 22 8a bd 17 85 fb 3d b4 87 bb 3d
       0.044017427 -0.06744809 0.12281244 0.09156743
0001f0 7e d2 8a 3d 66 27 11 3d 09 98 f0 bd 8b ce 6e bc
       0.067784294 0.035437964 -0.117477484 -0.014575611
000200 54 44 a3 3d cd ee 84 bd 6a e5 a6 3d ac ba 57 bd
       0.07972017 -0.0649086 0.08149226 -0.05266826
000210 e1 80 13 bb a7 6c de bc bd 19 04 3c 8b 92 99 bd
       -0.0022507238 -0.027151419 0.008062777 -0.07498654
000220 2a e0 85 bd 80 ec 28 bd 5d 61 d6 3d e3 1e 15 3d
       -0.065368965 -0.04124117 0.10467789 0.03640641
000230 87 21 62 bd 48 03 49 3d eb 81 fb 3d b0 bd e8 bc
       -0.055207755 0.049075395 0.12280639 -0.028410763
000240 43 ea de bd 39 84 68 bd 7c e9 b8 bd c4 03 c8 bc
       -0.108845256 -0.056766722 -0.090289086 -0.024415858
000250 e1 ad a2 3d 0e 42 9c 3d 4c f7 3b bd db d1 db 3d
       0.07943321 0.076297864 -0.045890138 0.10733386
000260 04 a5 c0 bd e5 ea 9e bd 20 d3 e7 3d c8 ac b3 bd
       -0.09406474 -0.07759646 0.11319566 -0.0877319
000270 e2 a5 c5 3d 3a 1d 25 bd db c8 74 3d 2e 07 25 3d
       0.0965078 -0.040311076 0.059761863 0.04029005
000280 84 0a eb 3d f5 de 74 3d a6 43 de ba e3 cd 1e 3d
       0.11476615 0.05978294 -0.0016957417 0.038770568
000290 2e 0a 71 3b a1 3f 91 bc 13 06 58 3d cc 07 ef 3c
       0.003677975 -0.017730536 0.052740168 0.029178523
0002a0 bc 46 75 3d 41 46 9e bd a4 8e c2 3c 3d 56 87 bd
       0.05988191 -0.077282436 0.023749657 -0.066082455
0002b0 d4 27 c1 bd e8 e6 2e bd d4 92 48 bd dc 7e 9c bd
       -0.09431425 -0.042700678 -0.04896815 -0.07641384
0002c0 15 68 b4 3d 41 b5 f5 3d 46 67 8a 3d 91 d9 d2 3d
       0.088089146 0.11997462 0.06757979 0.10295404
0002d0 4f 23 3b bd 26 b5 b3 bd 22 52 0e 3d 33 f9 1e 3d
       -0.04568797 -0.08774786 0.034746297 0.038811874
0002e0 14 00 b5 3d fc 46 35 bd ca 5f e4 3b b9 ea 37 3d
       0.088379055 -0.04425715 0.0069694268 0.044901583
0002f0 11 69 79 bd 0b 4e d0 3d 83 11 85 bd 2b 60 1d bd
       -0.060891215 0.101711355 -0.06497481 -0.03842179
000300 99 3a 2d 3c 2e 41 df bd cb f1 ef bc 6d 2b 54 3c
       0.010573053 -0.10901104 -0.0292901 0.012949807
000310 8c 15 f6 bc d6 36 95 bd 39 b4 9a 3d a4 09 f4 3d
       -0.030039571 -0.0728585 0.07553906 0.11915901
000320 85 07 9f 3d b5 ba 8a 3d 91 fb f5 3d a1 ff 4b 3d
       0.07765106 0.06773893 0.12010873 0.049804334
000330 bd 6e dc bd 63 71 b6 3d a0 f9 91 bc d3 82 d7 bd
       -0.10763309 0.089083456 -0.017819226 -0.105229996
000340 4f 59 ba bc 0c 2a a8 bc f7 1b 01 bd 55 30 c5 bc
       -0.022747664 -0.020527862 -0.03152081 -0.024070898
000350 66 f7 98 bc 4f a6 21 bd 30 8d b8 3c 06 4f e0 bd
       -0.018672656 -0.039465245 0.022528261 -0.109525725
000360 66 e1 f4 3d c4 da 56 bd 4c 38 a4 3d 7c aa bd bd
       0.11957054 -0.052454725 0.0801855 -0.09261033
000370 9d 72 97 bb a1 e4 e6 3d b5 00 12 bd 80 64 9e 3d
       -0.0046218173 0.11274076 -0.035645206 0.077340126
000380 af b2 fd bd 88 f6 e8 3c 43 41 9c bd fc 66 67 bd
       -0.12387597 0.028437868 -0.07629635 -0.056494698
000390 a9 d0 a4 3d 5c d2 d0 3d 9a 53 ac bd a1 58 7f bd
       0.08047611 0.10196373 -0.08414383 -0.062340382
0003a0 2b 1b 0b 3d 6f aa b9 3d bd b1 53 bc 4d b4 c0 3d
       0.033961456 0.09065711 -0.012920794 0.0940939
0003b0 74 8d 8a bc 5f 51 f9 3d 64 12 a8 bd 09 c2 77 3d
       -0.016913153 0.121737234 -0.08206633 0.06048778
0003c0 1c 10 f2 bc d8 cc f0 bd ac aa ef 3d 31 91 07 bc
       -0.029548697 -0.11757821 0.11702475 -0.008274362
0003d0 1b 99 9d 3d 5a be 0f 3c c6 1b ab 3d b6 4d 60 3d
       0.07695218 0.008773411 0.08354907 0.05476161
0003e0 2c 09 81 3d 11 4d b1 3d fa 80 cf 3d 22 bb 16 bd
       0.063005775 0.086572774 0.10132022 -0.036799558
0003f0 34 a0 37 bd b2 b6 21 bd ae 9b 43 bd aa 98 0b 3c
       -0.044830516 -0.039480872 -0.04775589 0.008520285

swin_transformer1.attn.qkv.bias f4 [192]
000000 56 8b 7e 3d f2 0d 83 3d 8f b8 c8 3d 43 72 f5 3c
       0.0621446 0.06399144 0.09800827 0.02996171
000010 d3 6a f3 bd ef ee 6b bd 37 37 d9 3d a5 5f 8b bd
       -0.118856095 -0.05760091 0.106062345 -0.06805352
000020 29 b8 a9 3d cf 28 d8 3d 58 10 84 3d ee f2 58 bd
       0.08287079 0.105546586 0.0644843 -0.05296605
000030 66 63 6a 3d c1 d0 a5 3d b8 09 ac bc d5 d1 2e bd
       0.0572237 0.08096457 -0.021000728 -0.04268058
000040 db 81 d5 3c 25 00 9e 3d 1c 49 ed bd 61 51 8e bc
       0.026062896 0.07714871 -0.1158621 -0.017372789
000050 cc 89 0c bd 2b ed 1b 3d 0a b8 d5 3d 24 cb df 3d
       -0.0343111 0.038067978 0.10435493 0.10927418
000060 9d b3 86 3d bf f7 70 bc 15 0e b8 3d 4b b5 cb 3d
       0.06577227 -0.014707505 0.08987061 0.09946688
000070 8f da fd 3d e0 7e 6a bd ac 37 9a 3d 07 fb a1 3d
       0.12395202 -0.057249904 0.0753015 0.07909208
000080 67 77 8e 3a d1 1a 94 3c a5 f1 e6 3d 41 a8 d0 bc
       0.0010869325 0.018079193 0.11276559 -0.025470855
000090 71 92 f1 bd 13 76 bc 3d ae 27 96 3d 09 ac db bb
       -0.117955096 0.09202208 0.07331787 -0.006703858
0000a0 b1 c8 10 3d 3e 56 d8 3c 20 83 b3 3d ce 05 e9 bb
       0.035347644 0.026408311 0.087652445 -0.0071112877
0000b0 f2 52 d1 3c 62 10 33 3d fa d2 af bd 50 4a d4 bd
       0.025552247 0.043716796 -0.085851625 -0.103657365
0000c0 3d cc c7 3d 34 7b a4 3d e2 27 87 bc 2f f6 07 bc
       0.09755752 0.08031312 -0.01649851 -0.008298441
0000d0 e6 4f 8a bd 66 66 2b bd 47 8d fb bd 2a 5d 78 3d
       -0.06753521 -0.0418457 -0.12282806 0.060635723
0000e0 01 99 d8 3d b8 f4 ef 3d 73 fe bc 3d e4 aa f8 3c
       0.10576058 0.11716598 0.0922822 0.030354924
0000f0 69 d8 81 bd e5 ec 8e 3d 8a 9d 59 3c 61 6c f1 3d
       -0.06340105 0.06978778 0.013282189 0.1178825
000100 a9 49 5e 3d 7f f2 fc bb 71 c8 f2 3d 33 15 de 3c
       0.054269467 -0.0077193375 0.118546374 0.027109718
000110 a6 0f 9a 3d 97 ed be bd 6c d4 27 3d a3 ce b2 bd
       0.07522516 -0.093226604 0.040974066 -0.08730819
000120 82 a7 d9 3d 74 9e c6 bb ba 22 b8 bd b2 4c 3a bd
       0.10627653 -0.0060613696 -0.089909986 -0.0454833
000130 f4 4e 99 bd 93 98 4a 3d a2 2f 7b bd 51 fb a5 3d
       -0.07485762 0.049461912 -0.061324723 0.081045754
000140 d5 af b2 bd af 59 b0 bd 7b 02 84 bd c5 22 d8 bd
       -0.087249435 -0.08610856 -0.064457856 -0.10553507
000150 2f e6 cb 3b 99 3f ab ba 3f 24 c2 bd 9b 7d fd bd
       0.0062225084 -0.0013065218 -0.0947957 -0.12377473
000160 c7 84 35 3d bf 72 6b 3d 35 59 1b 3c e4 54 9c 3d
       0.04431608 0.057482477 0.009481718 0.07633379
000170 ff 6a 98 3c 23 82 31 bd 59 44 9f bc e0 45 1e bc
       0.018605707 -0.043337 -0.01944177 -0.009660214
000180 f5 03 e2 3d cd e2 f5 3d 9b 21 8f 3d aa a7 0f 3d
       0.11035911 0.120061494 0.069888316 0.035072006
000190 da 73 89 bc 11 58 5a bd 50 f2 0a 3d a4 f9 71 bd
       -0.016778875 -0.053306643 0.033922493 -0.059075966
0001a0 4c cc ac 3d cf 97 84 bc 3d 48 e4 bc ec 04 12 bd
       0.08437404 -0.01618567 -0.027866477 -0.035649225
0001b0 2d 0e f7 bd 79 3a f5 3d 4c 27 40 3d 4c cc d6 3d
       -0.12063251 0.119740434 0.046912476 0.10488185
0001c0 0e 07 ca bd 4a 79 f5 bd fa e7 9b 3d c4 aa b5 bd
       -0.09864627 -0.11986025 0.076126054 -0.088704616
0001d0 3a 0f f5 bd 16 a7 0d 3d 23 9c 47 3d 21 58 8f 3d
       -0.11965795 0.034583174 0.048732888 0.06999231
0001e0 61 a4 81 bd aa 4d ea 3d 2b 92 5a 3a cb 4e a2 bd
       -0.06330181 0.114405945 0.0008337821 -0.07925185
0001f0 b1 a9 91 bd c7 44 8a bc 36 c3 96 3d cd d3 8d bd
       -0.07112444 -0.016878499 0.07361452 -0.069251634
000200 73 1e 6d 3b b1 21 36 3d 2f 1d c3 bc 66 2c ea 3d
       0.003618148 0.044465724 -0.023817627 0.114342496
000210 83 98 c4 bd 85 66 2e bd 89 8d 81 bd bd 3a 9e bd
       -0.09599402 -0.04257824 -0.06325824 -0.07726047
000220 21 85 d7 bd 53 ff ad bd e9 a7 bb bc 03 bd f4 bd
       -0.10523439 -0.08495965 -0.022907214 -0.119501136
000230 c0 34 f0 bd 45 6c 54 3d 4f 2e af bd 4a c9 d2 3d
       -0.11728811 0.051861066 -0.085537545 0.10292299
000240 48 33 19 bd 5f e7 a7 bd e3 28 a2 bd 1b c4 3a bd
       -0.03740242 -0.081984274 -0.07917955 -0.045597177
000250 50 84 bf bd d1 cf ac bd 2e d2 d7 3d 72 46 80 bd
       -0.093514085 -0.08438075 0.105381355 -0.062634364
000260 22 32 e7 bd ef da c9 bc c3 e8 a3 3d 55 25 96 3c
       -0.11288859 -0.024640528 0.0800338 0.018328348
000270 3c c9 af 3b 36 36 9f 3d bc 8d a3 bd 85 e6 12 bd
       0.005364565 0.07774012 -0.07986018 -0.03586437
000280 4f d3 c0 3c 12 0e d0 3d 9f fd ba bd 2e 77 4c bd
       0.02353826 0.10158934 -0.09130406 -0.049918346
000290 7e dd f0 bc ec 7f ac 3d 0d ef d4 3d bc fd 87 3d
       -0.02940249 0.08422837 0.10397158 0.06640193
0002a0 34 2a c0 3b 0a 16 db 3d 95 59 c7 bd 1c 26 bb bc
       0.005864406 0.10697563 -0.09733883 -0.02284532
0002b0 20 7d 87 bc bb 6b 1f bd 23 2c 98 3d ec 88 3f bd
       -0.016539156 -0.0389211 0.074302934 -0.04676144
0002c0 a8 5b 8c 3d 6a 21 06 3a aa dc b9 bb b6 33 80 3d
       0.068534195 0.00051166734 -0.005672057 0.06259863
0002d0 74 56 5d bc 5b ec fc 3c e7 e9 de 3d 89 d7 d2 bd
       -0.013509382 0.030874422 0.10884457 -0.10295016
0002e0 ff 6a e3 3d 97 02 38 bc 81 20 c2 3d 4d 2e c9 bd
       0.11104392 -0.011231086 0.09478856 -0.09823284
0002f0 bb ed d7 bc 1e 02 ae bd 41 be 08 bc e9 e5 f1 3d
       -0.026358476 -0.084964976 -0.008346141 0.1181143

swin_transformer1.attn.proj.weight f4 [64, 64]
000000 3b 5d dc 3c 00 99 bd 3b 18 96 b9 bd 89 4b 58 3d
       0.026899925 0.0057860613 -0.09061831 0.05280641
000010 8d 66 d4 3d e1 c2 dd bd 36 e4 43 bd cf 04 52 bb
       0.103711225 -0.10828186 -0.04782506 -0.0032046323
000020 82 aa 8b bc e6 70 2d bd df 7b 9b 3d 62 39 0f 3d
       -0.017049078 -0.042343996 0.07591986 0.034966834
000030 5f 65 cf bd c5 54 68 bc de 6b 9d bd 62 16 ef bd
       -0.10126757 -0.014180367 -0.0768659 -0.11674191
000040 fd 34 34 3d 20 82 a8 bd 24 41 f4 3d 51 31 94 3d
       0.043995846 -0.082279444 0.11926487 0.07235969
000050 54 b9 b2 3d 9d 27 4a 3c 9a 48 c4 bd f5 d0 57 3d
       0.08726755 0.012338546 -0.0958416 0.05268951
000060 56 1c c2 bd 3e 60 80 bd d1 30 fa 3d 14 f7 c9 bc
       -0.09478061 -0.06268357 0.12216342 -0.024653949
000070 08 0b ae bc 87 62 54 3d 3d 76 d4 3d 73 62 88 bd
       -0.021245494 0.051851775 0.10374115 -0.06659403
000080 d7 8d d5 bd c0 61 48 bd c6 b7 ec bd dd 42 65 3d
       -0.104274444 -0.048921347 -0.115584895 0.05597197
000090 e5 29 f1 bd ef f3 ff 3b 38 5f e5 3d e5 04 59 3c
       -0.11775569 0.0078110616 0.11199802 0.013245796
0000a0 a6 c9 0a 3d 36 75 d2 bc 9e 44 d8 3d e6 b3 89 3c
       0.033883713 -0.025690656 0.10559963 0.016809415
0000b0 a1 d8 f4 bd e5 bc b3 3d b1 ed 6d 3d eb d6 0e bd
       -0.11955381 0.08776263 0.05808801 -0.03487293
0000c0 66 19 ad bd 5f df dc 3c 3e 44 c1 bd 2d 9e 35 3c
       -0.0845211 0.02696198 -0.09436844 0.011085075
0000d0 e9 f6 2b bd 18 71 db 3d f8 c4 3d bd be 65 f4 3d
       -0.04198352 0.1071493 -0.046330422 0.11933468
0000e0 96 db cc bc 7e 5a b6 3d 6b e3 d7 3d a9 57 31 3d
       -0.02500705 0.08903979 0.105414234 0.04329649
0000f0 51 ae e3 bb c2 d1 e4 bd 27 78 d7 3d 91 ed 84 3b
       -0.0069482704 -0.11172821 0.10520964 0.0040566404
000100 9a 07 90 3b 52 24 76 bd cc 90 07 bc ac 3a 3c 3c
       0.0043954374 -0.06009323 -0.008274268 0.011488598
000110 11 7c 8f 3c 77 55 ad 3d 6d 40 8f 3c 92 48 65 3d
       0.017515214 0.08463567 0.017486775 0.05597741
000120 58 d2 32 3d 96 de 48 3d e9 dd 14 bc ca b5 be 3d
       0.04365763 0.0490404 -0.009086111 0.09312017
000130 de c5 3c 3d 5c 13 a4 3d 52 e1 94 bb 93 02 eb 3d
       0.04608714 0.08011505 -0.004543462 0.114751
000140 31 5e b8 3c c6 8d cc 3d e6 4c ed bd bc 2e 18 bc
       0.022505851 0.09987979 -0.11586933 -0.009288486
000150 3d 25 8c ba ee 7d 8d bd ea 69 82 3d ce 30 80 3d
       -0.001069225 -0.06908785 0.06367858 0.06259309
000160 5d 6a 0e bd c8 79 e7 3c 52 8b a6 bd 65 9b 0f bd
       -0.034769405 0.028256312 -0.08132042 -0.035060305
000170 b0 44 fe 3c 80 32 02 bd 52 84 a7 3b 4e 95 ae bd
       0.031038612 -0.03178644 0.0051122094 -0.08524571
000180 ac 73 bd 3d fd 4f 01 3e f8 c4 a7 3d 45 ad 79 3d
       0.09250578 0.1262817 0.08191866 0.06095626
000190 8d 9a b0 bd e4 84 99 bd c2 a7 b7 3d 76 b1 cf 3d
       -0.08623228 -0.0749605 0.08967544 0.1014127
0001a0 ac ba a6 3d d9 86 86 3d 79 89 24 3c 09 9e 11 bd
       0.081410736 0.06568689 0.010042542 -0.035551105
0001b0 78 82 aa bc 1c 07 eb bc db 88 0f 3d 3e 11 3d bd
       -0.020814165 -0.028689913 0.035042625 -0.04615902
0001c0 43 ce 92 3c 8c ef fa 3d 3a 8e 8d 3d de c8 a8 bd
       0.017920619 0.12252721 0.06911893 -0.082414374
0001d0 50 69 dc 3c d2 20 17 3d 4a 5b 03 3c 81 24 79 bd
       0.026905686 0.036896534 0.0080173705 -0.06082583
0001e0 0d 81 9c 3d e2 e5 c4 3c ec 7a f0 bd 57 5f 06 bc
       0.07641802 0.024035398 -0.117421955 -0.008201442
0001f0 b0 36 34 bc 20 11 64 3d 74 82 de bd 1e d5 a8 bd
       -0.010999367 0.055680394 -0.10864726 -0.08243774
000200 83 9e 4d 3d af a7 ec 3d 1a 7d 8b 3c 22 17 75 bd
       0.050199997 0.115554206 0.017027427 -0.059836514
000210 03 89 e0 bc 39 7a c9 bd 57 c9 e2 bd 1a 6e ad bd
       -0.027409082 -0.09837765 -0.11073559 -0.08468266
000220 7f 70 ee bc 75 f9 d3 bc 6a f1 b7 bd ff 9c ce bd
       -0.029106377 -0.025875786 -0.08981593 -0.100885384
000230 f4 99 a5 3d 52 00 ef b9 b6 36 53 3d 05 7d 9e bd
       0.08086005 -0.0004558587 0.05156585 -0.07738689
000240 ca ef d2 bd 4f 9c b1 3c b9 66 01 be e1 74 bb 3c
       -0.102996424 0.021680979 -0.12636842 0.02288288
000250 79 63 c7 bd a0 30 f6 3c ed 04 d1 ba 2e 9e 50 3d
       -0.0973577 0.030052483 -0.0015946903 0.050932102
000260 82 54 ad bd 5a 73 c2 3c e1 50 e4 bc 08 e4 b2 bd
       -0.08463384 0.023736645 -0.027870597 -0.087349
000270 4c e9 c9 bd f4 b7 98 3d 10 0a 69 3d 82 c4 68 3c
       -0.09858951 0.07456961 0.056894362 0.014207007
000280 2d 62 ea bd c8 d8 2c 3c 61 93 bc 3d 5c 65 26 bd
       -0.11444507 0.010549732 0.09207798 -0.040624008
000290 11 6c 99 3d 1b 5d 3d 3c ba 5b 84 3d 07 56 27 bd
       0.07491315 0.011557843 0.06462808 -0.040853526
0002a0 89 cc f2 3d db ba 73 bd f1 0c f9 3d f0 47 b8 3d
       0.11855418 -0.05950437 0.121606715 0.08998096
0002b0 a1 47 56 3d 00 ca cb 3d 61 3e 64 bd ea 39 d6 bd
       0.052314404 0.09950638 -0.05572355 -0.10460265
0002c0 9b 6c d3 bd d2 c4 c8 bd 67 fb 82 bd 63 90 ca 3d
       -0.10323449 -0.098031655 -0.063956074 0.09890821
0002d0 11 7f de bc b9 c0 c1 3d c5 3f 09 bd da ab af bd
       -0.0271602 0.09460587 -0.03350808 -0.085777
0002e0 44 f3 34 bd 5e f9 fc 3b 5f 4b ca 3d 9e 8f 5f bd
       -0.04417731 0.0077201566 0.09877657 -0.054580323
0002f0 66 65 6a bc ac 15 7e 3d 9d 61 b9 3d 54 32 b1 bc
       -0.014306402 0.062032387 0.090518214 -0.021630444
000300 b5 d4 b0 bd 40 99 11 3c 72 80 01 be 6c 0a bb bd
       -0.08634321 0.008886635 -0.12646654 -0.09132847
000310 b7 4a 3c bc 95 0a ba 3c c0 10 52 3d 60 83 1f bd
       -0.011492423 0.022710124 0.051285505 -0.03894365
000320 4c c0 32 bd d3 ae 40 bd 06 dc 4a 3d f0 21 6f bc
       -0.04364042 -0.047041725 0.049526237 -0.014595494
000330 0d 08 51 3d bd 13 1c 3d 99 f1 ff 3c d5 2b d7 bd
       0.05103307 0.03810476 0.031243132 -0.10506407
000340 4b 78 cd bc 61 4a eb 3d e6 f0 c9 3d 62 9b 23 3d
       -0.025081774 0.11488796 0.09860401 0.039943106
000350 71 73 bb bd 51 53 40 bd 2b dc e7 bc d4 13 27 bd
       -0.09152878 -0.046954457 -0.028303226 -0.040790394
000360 3f 83 84 bd 54 ed 62 3d 5f e8 47 bd 03 fd e8 bd
       -0.06470346 0.055402115 -0.04880559 -0.11376383
000370 98 34 ff 3d 56 66 cc bc 6a 87 3a bd af 30 72 bd
       0.12461203 -0.024951141 -0.045539297 -0.05912846
000380 8c 4d 9f 3d a4 8a b9 bc 68 24 56 bd 71 f2 c1 3d
       0.07778463 -0.022649117 -0.052280813 0.0947007
000390 8b 04 2b bd 4f 58 b0 bd 63 01 c8 bd 13 a4 74 3c
       -0.04175238 -0.086105935 -0.097658895 0.0149316965
0003a0 f6 71 fd 3d d5 5d 78 3d d6 d2 df bd 75 aa b7 bd
       0.12375252 0.06063636 -0.10928886 -0.08968059
0003b0 38 99 c9 3c eb 4f 13 bd 24 91 38 3d 29 97 92 3c
       0.024609193 -0.035964888 0.045060292 0.017894344
0003c0 6e 24 2b 3d c5 32 19 bd 4c 85 99 bd 09 fc 10 bd
       0.04178279 -0.037401933 -0.074961275 -0.03539661
0003d0 d4 ef 46 bd 04 95 8e bd 61 da 2b 3c eb 21 bc 3d
       -0.04856856 -0.06962016 0.010489077 0.09186157
0003e0 90 4c e4 3d 22 cf e5 bd 36 1c 8f 3d 4f 09 3b 3d
       0.11147416 -0.11221148 0.06987803 0.045663174
0003f0 4c 4a f3 3d ca 14 ee bc 09 b6 64 3d a7 78 7e bd
       0.118794054 -0.029062647 0.055837665 -0.06212678

swin_transformer1.attn.proj.bias f4 [64]
000000 00 8e fc 3c ae 43 10 bd 11 49 6f 3d 38 fa a1 3d
       0.03082943 -0.035220794 0.05841929 0.079090536
000010 df 9e 47 3d 0a 44 98 bd 86 d1 c3 3d be 80 20 bc
       0.048735496 -0.074348524 0.09561448 -0.0097963195
000020 fe 9c d9 bd d7 48 a0 bd a9 19 2c bd 1d 4c f3 bb
       -0.10625647 -0.07826393 -0.04201666 -0.007424845
000030 6e c9 e9 3d 1f 83 f1 3d 4b ab 9d bc 89 a0 cc 3c
       0.11415373 0.117925875 -0.019246718 0.024978893
000040 ab c8 a0 3d 97 83 b3 3d ea 35 ab 3c 2a 76 e8 3c
       0.078507744 0.08765333 0.020899732 0.028376658
000050 07 0b 55 3d 92 7a ca 3c e7 70 77 bd 25 42 bc bd
       0.05201247 0.02471665 -0.060410406 -0.091923036
000060 65 4d 14 bd 24 ad 73 bd 20 e0 b7 3d 5f ae a1 bd
       -0.03620662 -0.05949129 0.08978295 -0.07894587
000070 2d de b8 bd b2 8f 89 bd 23 01 26 3d 72 64 a5 bd
       -0.09026752 -0.06716861 0.040528428 -0.08075799
000080 d7 4b ad 3d e6 10 5f bd c4 aa a8 bd d0 b9 85 bd
       0.08461731 -0.054459475 -0.08235696 -0.065295815
000090 8c 4d ac 3d 0b b3 0a bd 47 b4 a4 3d 94 68 30 3d
       0.084132284 -0.033862155 0.08042198 0.043068483
0000a0 30 38 cc bd 52 73 ce bd fd 7d 69 bd e7 4f 4d bd
       -0.099716544 -0.10080589 -0.057004917 -0.05012503
0000b0 e5 bf 5a bd f2 ec 07 bd 4a e5 43 3c 2a bc c9 bd
       -0.05340566 -0.033184953 0.011956522 -0.098503426
0000c0 b5 f2 1a 3c c6 c6 84 bd 66 ca 35 3c 1f ec 8d bd
       0.00945728 -0.064832255 0.011095619 -0.06929802
0000d0 63 5f 82 bd 2a 95 97 3d 03 13 aa 3c 75 16 b4 bd
       -0.0636585 0.07401498 0.020761019 -0.08793346
0000e0 59 01 d3 bc 3e 9b fc bd b6 cf a2 bc 64 f0 9c bd
       -0.025757479 -0.123342976 -0.019874435 -0.076630384
0000f0 b1 be 8c 3d 74 8c 09 3d d2 a2 4e 3d a3 c1 f8 3d
       0.06872309 0.033581212 0.050448246 0.12146308

swin_transformer1.norm2.weight f4 [64]
000000 ae 41 7f 3f 83 7b 7f 3f 4e ad 7f 3f 35 39 7f 3f
       0.99709594 0.9979784 0.99873817 0.99696666
000010 dd 0a 80 3f ac b7 7f 3f 2f f7 7f 3f 3b 74 7f 3f
       1.0003315 0.99889636 0.9998655 0.9978673
000020 17 0d 80 3f 08 05 80 3f 37 9e 7f 3f 1a 44 7f 3f
       1.0003995 1.0001535 0.9985079 0.9971329
000030 1c e1 7f 3f b1 88 7f 3f ac b6 7f 3f fc 68 7d 3f
       0.99952865 0.9981795 0.9988811 0.9898832
000040 a9 be 7f 3f 29 78 80 3f c9 5f 80 3f c3 07 80 3f
       0.999003 1.003667 1.0029231 1.0002369
000050 58 19 80 3f 26 f9 7f 3f de 5a 80 3f 9e ac 7f 3f
       1.0007734 0.99989545 1.002773 0.9987277
000060 42 2d 7f 3f c1 30 7f 3f c4 80 80 3f b3 8c 7f 3f
       0.9967843 0.9968377 1.0039296 0.99824065
000070 fc c8 7f 3f d8 2d 80 3f 23 6a 7f 3f f9 64 7f 3f
       0.9991605 1.001399 0.99771327 0.9976345
000080 5d 3c 80 3f 30 30 80 3f bd 82 7f 3f f4 50 80 3f
       1.0018421 1.0014706 0.99808866 1.0024705
000090 05 85 80 3f 79 66 80 3f cc 02 80 3f 07 58 7f 3f
       1.0040594 1.0031272 1.0000854 0.99743694
0000a0 02 2f 7f 3f 73 f9 7e 3f b7 53 7f 3f 59 ab 7f 3f
       0.99681103 0.9959938 0.99737114 0.9987083
0000b0 50 2c 80 3f bf 6a 7f 3f aa 3b 7f 3f ad d3 7e 3f
       1.0013523 0.99772257 0.99700415 0.9954174
0000c0 ac f8 7f 3f bf e0 7f 3f bd 1c 80 3f c5 81 7f 3f
       0.9998882 0.9995231 1.000877 0.9980739
0000d0 cf f7 7f 3f 0b 42 80 3f 5e d8 7f 3f 3e d6 7f 3f
       0.999875 1.0020155 0.99939525 0.9993628
0000e0 40 48 80 3f ee 92 7f 3f d8 64 7f 3f 9b a2 7f 3f
       1.0022049 0.9983357 0.9976325 0.9985749
0000f0 9b 48 7f 3f b4 51 7f 3f 63 b1 7f 3f 48 7d 80 3f
       0.9972016 0.99734044 0.99880046 1.0038233

swin_transformer1.norm2.bias f4 [64]
000000 52 8d ac 3a 6a 17 a6 ba a5 69 fa 38 7a 28 e6 b7
       0.0013164675 -0.0012671773 0.00011940607 -2.7436985e-05
000010 89 ad 9c 39 84 72 8d ba 5d 47 ef 38 24 ec 01 3a
       0.00029883932 -0.0010791575 0.000114097005 0.0004956147
000020 51 5f 0e b9 c8 f3 18 ba c8 ea 09 ba 94 7c b7 ba
       -0.00013577683 -0.0005834666 -0.00052611204 -0.0013998919
000030 66 1f d2 ba 05 0b 44 3a 21 fe 89 ba 6e 3b eb 39
       -0.0016031086 0.00074784487 -0.0010528007 0.0004486697
000040 67 1b 3d ba 27 98 a2 ba 15 6e e5 b9 34 7f ee 37
       -0.0007213861 -0.0012404964 -0.000437603 2.8431044e-05
000050 cf e8 ee 39 23 6f 14 3a 67 6f b3 ba 75 64 04 bb
       0.00045568353 0.00056623126 -0.0013689817 -0.0020201479
000060 a7 ac b7 3a 7f 66 4a 3a 79 a2 14 3a 44 63 e1 b9
       0.0014013246 0.00077209616 0.0005669962 -0.00042989303
000070 40 03 88 b9 1c 29 1c bb 8a 95 34 b9 db 2b 7f b9
       -0.00025942363 -0.0023828214 -0.00017221845 -0.00024335033
000080 7a 9a b0 3a 27 9c 4a 3a d1 e0 b1 3a 62 cc 0b ba
       0.0013473772 0.0007728957 0.0013571029 -0.00053328846
000090 1c 5e 69 3a 98 f7 42 bb b1 77 07 3a 9a 0d 94 ba
       0.0008902268 -0.0029749628 0.0005167677 -0.0011295557
0000a0 aa 3d 3b b9 5d 12 a9 b9 42 9b 52 ba ff fc 91 ba
       -0.00017856681 -0.00032247874 -0.00080339995 -0.0011138021
0000b0 a1 77 b4 ba 0e 77 8f b9 92 e2 c6 ba 3c b7 a5 3a
       -0.0013768562 -0.00027363788 -0.0015173724 0.0012643109
0000c0 9b ed 5f 3a 7b ac a4 3a 5a 53 c2 39 c5 aa 4d b9
       0.0008542181 0.001256361 0.00037064665 -0.0001961394
0000d0 34 67 85 ba a5 66 3d 3a 5c f6 37 b9 f8 2d 01 3a
       -0.0010177852 0.0007225073 -0.00017544016 0.00049278094
0000e0 04 1a 97 ba 9b 80 ac ba 40 c0 e5 ba b6 ad e4 39
       -0.0011528139 -0.0013160886 -0.0017528608 0.00043616974
0000f0 af 5c c1 3a 4c 47 33 3a ab b6 52 3a 63 3b 1f ba
       0.0014752353 0.0006838932 0.0008038084 -0.0006074218

swin_transformer1.mlp.0.weight f4 [128, 64]
000000 ab 16 be bd f8 d2 37 bd a3 52 18 bd 81 2c ca 3a
       -0.09281667 -0.04487893 -0.037188184 0.001542464
000010 ae db e7 3d 07 32 ff bd 5a 9d 16 bd 7f 06 18 3d
       0.113211975 -0.12460714 -0.036771156 0.03711557
000020 88 ec f6 3d 39 2e 0f 3d 49 ee 35 bd 1a 3c e7 bd
       0.120568335 0.03495619 -0.0444167 -0.1129076
000030 80 f3 dc 3c f4 b0 5b 3d 39 1e e1 3d 09 1f c9 bd
       0.026971579 0.053635553 0.10992093 -0.098203726
000040 56 20 cd bd 28 4f b6 3d a0 5a d4 3d 36 1b 9b bd
       -0.10015933 0.089018166 0.10368848 -0.075735494
000050 82 9e ed 3d 42 14 9c bd e5 50 92 3d 9a dd b0 bd
       0.116024986 -0.07621051 0.07144336 -0.08636017
000060 3a 5f 25 bc 62 e6 cf 3d f0 e2 f7 bd 26 4b fe bd
       -0.010093505 0.10151364 -0.12103832 -0.12416677
000070 97 1c 44 3d a5 53 ad bd bf cd 0b bc 4a 65 a4 bd
       0.047878828 -0.084632196 -0.00853294 -0.08027132
000080 7f 6f 68 bd 17 08 45 bb 6b a3 54 3c 91 dd 61 3d
       -0.056746956 -0.0030064636 0.012978415 0.055142943
000090 b4 b1 c7 bd dc 3f 05 bc b9 64 89 bd 9f 2d c6 3d
       -0.09750691 -0.008132901 -0.067086644 0.0967667
0000a0 21 fd d6 bd 19 e0 d8 bd f2 aa b5 bc d0 31 67 bb
       -0.10497499 -0.10589618 -0.02217624 -0.0035277493
0000b0 b7 eb 27 bd d7 e5 d5 3d a9 ca a1 3c 2f 3b 86 bd
       -0.04099628 0.10444229 0.019749956 -0.06554257
0000c0 28 48 c6 bc 43 e6 e0 3d 07 b1 d1 bc 16 9e ec bd
       -0.024204329 0.10981419 -0.025597109 -0.1155359
0000d0 7a ae 4b bd 05 9d c3 bd 40 95 6a 3d f2 c8 c3 3d
       -0.04972694 -0.095514335 0.057271242 0.09559812
0000e0 74 cd de bc 19 b7 76 bd 76 9b b4 3d c5 ab af 3d
       -0.027197577 -0.06023321 0.08818714 0.08577684
0000f0 6d 28 96 bd 0f d1 40 bc c9 18 bc bd 02 51 1e 3d
       -0.07331929 -0.011768593 -0.09184415 0.038651474
000100 1d 9c ab 3d df 48 ef 3d 55 2a 2f bd 55 99 a3 bd
       0.083793856 0.11683821 -0.04276498 -0.0798823
000110 b5 34 92 bd f7 11 fd bd 1c 11 9f bc 6a 9d 52 bd
       -0.07138959 -0.12356942 -0.019417338 -0.051419653
000120 2b b6 50 bd 3b b5 bc 3d 1d 95 71 bd d0 ef 66 3d
       -0.05095498 0.092142545 -0.058980096 0.056381047
000130 36 12 b1 bd 44 e0 28 3c 10 8b 8a 3d 0f 2e 22 bd
       -0.086460516 0.010307375 0.06764805 -0.039594706
000140 d3 f8 4f 3c ff b2 be bd 56 a4 51 bd 34 ba d2 3d
       0.012693602 -0.093114845 -0.051182114 0.10289422
000150 92 42 96 bd d9 c6 97 bd dc 52 b4 bd 96 3a 67 bd
       -0.07336916 -0.07410974 -0.08804867 -0.056452356
000160 b1 46 e0 3a bf 11 cf bc de ff 31 bd 02 ea 85 bd
       0.0017110911 -0.025277017 -0.043456905 -0.06538774
000170 a0 db ee 3d f8 89 b7 bd 00 af e9 bd 6c 26 86 bd
       0.11662984 -0.08961862 -0.11410332 -0.06550297
000180 6a 0f 71 3b 73 1f e9 3d 55 e9 b0 3c 4f 98 8b bd
       0.003678287 0.113829516 0.021595636 -0.0681616
000190 5e b3 a0 bc 57 2f b3 bd 7e fb ab bc 33 4b b0 3d
       -0.019616779 -0.08749264 -0.020993944 0.08608093
0001a0 94 b4 e6 bc 01 6d f2 bc 2b 92 ee bd fc cb a1 bc
       -0.028162278 -0.029592993 -0.11648973 -0.019750588
0001b0 61 f0 80 3d 66 8e fa bd a3 34 b9 3c 2d 3b b1 bb
       0.06295849 -0.122341916 0.022608107 -0.0054086656
0001c0 c9 b4 48 bd 1b af b5 bd f0 bb e2 bd 99 74 4c 3d
       -0.049000535 -0.08871289 -0.110710025 0.049915884
0001d0 1c 34 1d 3d 97 c5 ae bd be 67 d5 3b a5 36 f4 3d
       0.038379773 -0.08533781 0.006512611 0.11924485
0001e0 1f 33 1d bd 05 a3 95 bd e5 68 e3 3d df d7 dc 3d
       -0.03837883 -0.07306484 0.111039914 0.10783362
0001f0 09 2b b9 bd ed d6 e3 3c c0 ff e9 3d f0 59 ed 3d
       -0.090414114 0.027812446 0.114257336 0.1158942
000200 9d c8 47 bd 1f 29 92 3c 68 cd 05 bd 2d e1 ec 3d
       -0.048775304 0.017841874 -0.032666594 0.11566386
000210 49 09 0a 3b f7 63 b7 3d ae 54 d1 3d c3 a7 76 3c
       0.0021062663 0.08954614 0.102212295 0.015054646
000220 83 c7 74 3d 4f 7c 30 3d f0 48 2e bd 1d 86 56 3c
       0.05976058 0.0430873 -0.042550027 0.013093499
000230 36 a0 a6 3d d7 df e7 bc 5b df d3 bd 7b 2b e5 3d
       0.081360266 -0.028304977 -0.10345336 0.11189934
000240 4d fc 28 bd 6c 68 9a bd 1f 3f 68 bd 38 83 f3 3d
       -0.041256238 -0.07539448 -0.056700822 0.11890262
000250 08 ed ce 3d 77 33 a3 3d 68 6f b4 3d 71 da 0b 3d
       0.10103804 0.079688005 0.088103116 0.03414387
000260 65 34 37 bd 41 6b af bc 2b 07 c7 3c 81 a3 3d bc
       -0.0447277 -0.021413447 0.02429541 -0.011574627
000270 f7 94 0b bd 7a ec 8c 3d 52 7e 60 bc ce 1c ad 3b
       -0.03407761 0.06881042 -0.013701992 0.005282975
000280 8c ee cc 3d 00 ce 45 bd a4 dd 56 3d 6f 91 79 bd
       0.10006437 -0.04829216 0.052457467 -0.060929712
000290 d8 b6 ab bd 55 f9 0d bd ff 1d c1 bd 50 19 ca bc
       -0.08384484 -0.03466161 -0.094295494 -0.024670273
0002a0 b1 37 c6 3d 1f af a9 3d ec 30 8f 3d 26 38 8d bd
       0.09678591 0.08285355 0.06991753 -0.06895475
0002b0 72 ce eb 3d ed e2 93 3d 4c 95 d0 3d bf d8 82 3d
       0.11513986 0.07221017 0.10184726 0.06388997
0002c0 93 3d d1 3b 1b 6c ea bd a1 f2 d7 bd 29 96 21 bd
       0.006385514 -0.11446401 -0.10544325 -0.039449845
0002d0 76 a7 93 3d f7 c3 1e bd ec 22 a1 bd fc 19 63 bd
       0.07209675 -0.038761105 -0.07867989 -0.055444703
0002e0 ae be d8 bd de 63 c4 3d 34 39 6d 3d eb 27 f7 bd
       -0.10583244 0.09589361 0.05791588 -0.120681606
0002f0 69 46 ad 3c 20 81 29 bd 7f 37 ed bc 6d f5 e6 bd
       0.021151738 -0.04138291 -0.028957127 -0.1127728
000300 9d 09 7d 3d 34 fa 2a bc d7 5a c2 3d e2 92 56 3d
       0.061776746 -0.01043563 0.094899826 0.052386172
000310 7b db 42 3d 11 7e 22 3d d3 ba 09 3d 89 78 d1 bd
       0.047572594 0.039671008 0.033625435 -0.102280684
000320 38 41 01 3b 5a 94 bb 3d 9a e8 78 bd 85 37 ef 3d
       0.0019722711 0.09159155 -0.0607687 0.116805114
000330 7f f8 90 3d e6 f1 a3 3d 15 4d 95 3d b5 96 49 bd
       0.07078647 0.08005123 0.07290093 -0.04921599
000340 ce 2f 4c bd c4 fa c4 bd 52 03 e8 3c 4b 40 89 bd
       -0.049850278 -0.09618142 0.028321896 -0.06701716
000350 59 9c c1 3c 12 03 02 3e 4d a6 90 bd 89 c6 de bd
       0.023634123 0.12696484 -0.07062969 -0.10877711
000360 95 00 08 3d 1e a8 08 bd d3 87 ec 3d d5 d0 1a bc
       0.03320368 -0.033363454 0.11549344 -0.0094492035
000370 a8 2a f7 3d 35 4c eb 3d 50 22 ae 3d 09 5e b9 3d
       0.12068683 0.11489145 0.08502638 0.09051139
000380 b6 e2 8b 3d cc 43 e4 3d 75 7c e0 3d 88 3a 08 bd
       0.06830351 0.11145744 0.10961238 -0.033258945
000390 6d 3c 32 bd 01 25 91 bd 48 f9 66 bc e2 23 37 bd
       -0.043514658 -0.07087136 -0.014097519 -0.044711955
0003a0 31 b7 2d bd e3 bf 17 3d 9c 13 b9 bc 08 25 2e bd
       -0.042411033 0.03704823 -0.022592358 -0.042515785
0003b0 6b 2c 9c 3b 45 27 16 3d eb 14 8d 3d d9 3b 31 3d
       0.004766037 0.036658544 0.068887554 0.043269966
0003c0 c8 39 3a 3d 4e 16 ec 3c ff e1 95 bb 55 ea aa bd
       0.04546526 0.02881923 -0.00457406 -0.083454765
0003d0 95 9d 87 bc 66 18 2c 3d d1 f2 ed bd f5 9a eb bd
       -0.016554633 0.042015456 -0.11618579 -0.11504165
0003e0 0a 1d 2f bd 8a 4a 88 bd e6 e5 ca bd 03 3c e4 3d
       -0.042752303 -0.06654842 -0.09907131 0.11144259
0003f0 28 03 b8 3d f4 4f 33 bd 59 73 c7 3d 6d 09 ec 3d
       0.08984977 -0.04377742 0.09738798 0.11525235
